llvm/unittests/Analysis/Inputs/ir2native_x86_64_model/model.tflite (tflite, 88300 bytes, 3 tensors)

sequential/dense/BiasAdd/ReadVariableOp;sequential/dense/BiasAdd/ReadVariableOp f4 [100]
000000 4f 24 8e bd 20 05 12 3f be 52 12 3f 62 43 1c 3f
       -0.06940519 0.5703907 0.57157505 0.6104032
000010 8f 31 3d be 22 cd 11 3f 2e 7f 15 3f 77 b9 16 3f
       -0.18475936 0.5695363 0.58397186 0.58876747
000020 74 0a 15 3f 8d 8f 16 3e 7d 92 23 3f 08 da 13 3f
       0.58219075 0.14703198 0.638954 0.57754564
000030 8b e0 1a 3f c9 a6 15 3f c9 40 1c 3f a3 1a 8c be
       0.60498875 0.5845762 0.61036354 -0.27364072
000040 1d ca 17 3f 45 58 1b 3f 2f 68 13 bf 91 a1 18 3f
       0.59292775 0.60681564 -0.57580847 0.5962153
000050 15 f4 fb bd cf f7 12 3f dc f6 8a 3f 50 6b 8b bf
       -0.12302414 0.57409376 1.0856586 -1.0892124
000060 1c dd 16 3f 1e 4f 11 3f 8d a2 18 3f cc 5c 16 3f
       0.58931136 0.5676135 0.5962303 0.58735347
000070 a8 66 99 be a1 5e 15 3f 36 af 18 3f 3f f2 09 bf
       -0.29961133 0.5834752 0.5964235 -0.53885263
000080 b3 67 18 bf 28 02 1c 3f 69 53 19 3f 8d 74 9a be
       -0.5953323 0.6094079 0.598929 -0.30167046
000090 fe a7 e2 bc 27 ce 1d 3f 61 1d 13 3f c2 ee 10 3f
       -0.027667996 0.6164269 0.57466704 0.56614316
0000a0 f1 e9 13 3f cb 9f 87 3b ae 3b be be 4b 42 18 3f
       0.5777884 0.004138922 -0.37154907 0.59476155
0000b0 8d 81 88 bb e4 82 17 3f d4 29 c2 bd c4 42 19 3f
       -0.0041658343 0.591841 -0.09480634 0.598675
0000c0 ac 56 1a 3f 02 66 17 3f c5 70 2e be 2f da 1b 3f
       0.602885 0.59140027 -0.17035206 0.60879797
0000d0 35 32 0e bc d9 cf 19 3f f0 9c 19 3f 84 2b 54 bd
       -0.0086789625 0.60082775 0.6000509 -0.051799312
0000e0 f4 24 1e 3f de b0 13 3f 3c 21 13 3f 4f 78 1e 3f
       0.61775136 0.5769175 0.57472587 0.61902326
0000f0 0e b3 1a 3f cd d3 fb bd 3a 53 03 be 21 ca 7c be
       0.60429466 -0.12296257 -0.12824717 -0.24686481
000100 13 70 0b be 3f 44 19 3f 16 45 9e be 86 ae a0 3e
       -0.13616972 0.5986976 -0.30912083 0.3138315
000110 da ba 36 3e 0a c2 15 3e 83 d8 a5 be 90 5a b2 3c
       0.17844716 0.14624801 -0.32391748 0.0217717
000120 c5 e3 1c bf 39 9b 9a bd 9e 53 89 be 7f bd 1e 3f
       -0.6128505 -0.075491376 -0.26821607 0.620079
000130 4c dd 12 3f 82 f1 15 3f d2 7d b7 3d e9 a4 9c be
       0.5736892 0.58571637 0.08959545 -0.30594566
000140 fa bf 1d 3f 0e 9c 14 3f bf 8c 18 3f b8 e0 11 3f
       0.6162106 0.5805062 0.5958976 0.5698352
000150 27 c9 12 3f 93 7f 2e be 23 46 1b 3f eb e9 11 3f
       0.57338184 -0.17040853 0.60653895 0.56997555
000160 4b 7c a4 3d df d2 59 be e0 65 34 3e ef 53 87 bc
       0.080315195 -0.21271847 0.17616987 -0.016519515
000170 e3 c0 15 3f 1f 32 21 bf f4 fc 57 bd 67 b4 c3 bd
       0.58497447 -0.62967104 -0.05273147 -0.095558934
000180 c9 41 16 3f a9 89 be be 62 18 cc bc c9 0d 1d 3f
       0.5869413 -0.372144 -0.02491397 0.6134916

sequential/dense/MatMul;sequential/dense/MatMul f4 [100, 214]
000000 b9 5e a8 bc fc a9 d4 bc 79 11 1e 3e ef db 0e 3f
       -0.02055298 -0.025959961 0.15436353 0.5580434
000010 c4 04 d2 bd ac 65 9b bd 43 0d a1 3e 77 58 da 3e
       -0.10254815 -0.07587752 0.3145543 0.42645618
000020 25 14 18 be d4 73 0e 3d a3 00 f5 3e ad 8a 71 be
       -0.14851435 0.03477843 0.47852048 -0.23588057
000030 94 2d 02 bf 13 7e 8e bd b2 c7 1b be 53 96 09 bf
       -0.50850797 -0.069576405 -0.15212896 -0.53745
000040 01 75 52 3f 48 40 a8 3c 88 13 75 bc 6c 6d f7 bd
       0.82209784 0.020538464 -0.01495827 -0.120814174
000050 80 d8 f8 3a c6 93 e5 3e 85 81 94 3e 89 f8 b7 bb
       0.001898542 0.44839305 0.29005066 -0.0056143445
000060 fa ee 63 bf 6d 66 73 3c 0a 0a c9 be ff c6 8a 3e
       -0.89036524 0.014855963 -0.39265472 0.27104947
000070 e5 bb 86 3e 6e 8d 5d 3e 43 25 d9 3e cd 91 37 3f
       0.26315227 0.21635982 0.4241124 0.7170685
000080 0d bd 8a 3e 74 28 c0 bc c3 89 e7 3d 2b e3 56 be
       0.2709736 -0.02345679 0.11305573 -0.20985095
000090 0b 8b 0d 3f a9 e8 ca 3d 5a 0f 37 3e 93 c8 c5 3e
       0.5529029 0.09907658 0.1787695 0.38629588
0000a0 52 d9 1b bc 74 6f 97 3d 8f b7 63 3d fc ec 09 3d
       -0.009512262 0.07394305 0.055594977 0.03367327
0000b0 f7 1c 5b 3d 12 b3 3c bf e3 8a 5b 3f 58 e9 9c 3c
       0.05349442 -0.7371074 0.857588 0.019154236
0000c0 45 5e 51 be 24 a5 a3 be f5 27 cd ba 27 53 80 3f
       -0.20446117 -0.3196193 -0.0015652167 1.0025376
0000d0 55 d4 45 3f 05 fb 03 3f a1 d1 e8 3d 31 a4 c4 3e
       0.7727712 0.515549 0.113681085 0.38406518
0000e0 1c 09 f7 3e be cd 89 be b7 74 8f bd d8 5e 8d bd
       0.48249137 -0.2691478 -0.070046835 -0.06902856
0000f0 88 ea fb bc e0 c9 9d 3d 05 e5 43 bc f2 3f a9 3e
       -0.030751482 0.0770452 -0.011956458 0.330566
000100 a8 55 dd 3d f9 11 8e 3d d1 bc 9a 3d 30 5a 94 3c
       0.10807353 0.06937022 0.07555545 0.018109411
000110 14 ec 16 bd 6d 68 e0 bd 99 87 4d bf 2c 7a da 3c
       -0.036846235 -0.10957418 -0.8028503 0.026669584
000120 e2 d0 2d be a5 a3 bf be 76 0a 03 be 3c ac 5d be
       -0.16974214 -0.37429538 -0.1279696 -0.21647733
000130 fc 8e e8 3d 53 a4 b2 be 5c 34 41 3d 84 e3 df 3d
       0.11355397 -0.34890994 0.047169074 0.10932067
000140 bd b1 2b 3e 5e 55 07 be bc 90 c2 bd d5 50 b5 bd
       0.1676702 -0.13216159 -0.09500262 -0.08853308
000150 4c 16 34 3d 09 4c 11 3f be 94 db 3d 58 a1 e2 bc
       0.043966576 0.56756645 0.1072173 -0.027664825
000160 d7 5b 75 3e 4c da f3 bb 40 c0 57 3b c0 8d 04 bd
       0.23960815 -0.0074417945 0.0032920986 -0.032361746
000170 d8 b2 09 3e 89 60 00 3e 26 c0 18 3d 34 83 1d 3d
       0.1344713 0.12536825 0.037292622 0.038455203
000180 c8 8f d3 bd 9c 3d 18 3d ff 69 72 3f 3c 35 ad 3d
       -0.103301585 0.03716813 0.9469299 0.08457419
000190 24 6f 83 3f 7a 12 0a 3f bd 9b 8b ba 58 2d 9d 3c
       1.0268292 0.53934443 -0.0010651272 0.01918666
0001a0 e7 25 9c 3d 03 4a 89 bf 81 75 66 3d a7 26 35 3f
       0.07624417 -1.0725712 0.056264404 0.70762104
0001b0 bd 66 de 3d a9 89 4e be 23 3e c1 3e be e8 9b be
       0.108594395 -0.201697 0.3774272 -0.30451006
0001c0 7a ee 64 bd 8a 55 60 3f 7f 19 4a bf 33 b0 d3 3e
       -0.05589149 0.8763052 -0.78945154 0.41345367
0001d0 28 73 67 3e e3 c2 63 be f5 25 48 bf f8 e2 26 be
       0.22602522 -0.22242312 -0.7818292 -0.16297519
0001e0 28 6e d8 be 7c ae 76 bd 78 ca 44 3f 09 53 24 3f
       -0.42271543 -0.060224995 0.7687144 0.641892
0001f0 16 e2 3e 3e 77 2b 46 3e 76 71 c5 bd 55 90 24 bf
       0.18640932 0.19352518 -0.096407816 -0.64282733
000200 59 4a e2 bb d5 c8 dd be af 39 56 3e b2 53 69 3f
       -0.0069058356 -0.43317285 0.20920442 0.91143334
000210 6b f0 1d 3e b8 a4 b3 3d 9b 33 3c be d8 7e 44 bf
       0.15423743 0.08771652 -0.18379061 -0.7675605
000220 fb fd 44 3e 20 98 82 3e f6 b2 96 bf 59 83 b3 be
       0.19237511 0.25506687 -1.1773365 -0.35061148
000230 dd f8 94 3f fc ac 98 3e 52 ea 6c be 8d 89 5f 3c
       1.1638447 0.29819477 -0.23136261 0.0136436345
000240 45 81 b6 bd 0a b3 01 bf 7e db fa be f9 15 4e bf
       -0.08911375 -0.50663817 -0.48995584 -0.8050228
000250 4c 6c 81 bf 19 46 96 3e 70 cd 4a bd ce 7a cb 3e
       -1.0111175 0.29350355 -0.049512327 0.3974213
000260 d5 7e e3 3e a8 c9 16 3f 54 ac fa be 7b 73 09 bf
       0.44432703 0.58901453 -0.489596 -0.53691834
000270 f7 34 2c 3f f0 cd c7 3e ea b1 35 3a 50 4c 4d c0
       0.6726832 0.39024305 0.00069311133 -3.2077827
000280 bf 97 a0 be 19 ac 18 3e 7f f6 eb 3e fe 29 7a 3d
       -0.31365773 0.149094 0.460865 0.061075203
000290 6a c7 9b be b7 f0 5e 3f 22 6c 2f 3f ec 1b c7 be
       -0.30425578 0.8708605 0.6852437 -0.3888849
0002a0 cd 6e b6 3e 9a a7 2b 3e b0 cb 86 bf a2 f2 88 be
       0.3563141 0.16763154 -1.053091 -0.26747614
0002b0 ec 8b c3 3e a4 24 45 3f 47 94 e1 be ab 95 04 bf
       0.3819269 0.77009034 -0.4405844 -0.51790875
0002c0 dd c6 a8 3e a8 f9 50 bf 53 d3 de 3d 42 08 ac bf
       0.3296422 -0.81630945 0.10880151 -1.344002
0002d0 cd 1f 52 3f 34 c9 fe bf 72 18 12 be 07 d0 5d bd
       0.82079774 -1.9905152 -0.14267138 -0.05415347
0002e0 e2 c0 74 3e 5d ec d2 be 75 b9 38 bf 54 f1 a8 be
       0.23901704 -0.41195956 -0.72157985 -0.3299662
0002f0 06 e3 ca 3d bc 0d b9 be 55 e0 05 3f 38 99 93 3b
       0.099065825 -0.3614329 0.5229543 0.004504349
000300 7f ec 1b bf d8 41 e2 bc 8b 79 31 3f 00 f9 95 be
       -0.6090774 -0.027619287 0.69326085 -0.29291534
000310 fa 9d db bf 14 7c 9c be 5e c7 1b 3f a8 4e e8 3e
       -1.7157586 -0.30563414 0.60851085 0.4537251
000320 20 19 f2 be 1f 16 a8 be 8c 24 9c be 16 ce db 3d
       -0.47284794 -0.32829377 -0.30496633 0.10732667
000330 a6 c5 61 3f 30 3f a5 3d 60 9f 19 3d 0e fb c1 3e
       0.8819221 0.08068693 0.037505507 0.37886852
000340 c0 f5 b8 3f 3f f2 4f 3d c6 00 60 3d a2 a8 c9 be
       1.4449997 0.050768133 0.054688238 -0.3938647
000350 c0 0b b4 be 05 ea e4 bd e9 4c 88 3e f3 13 05 3e
       -0.35165215 -0.11177448 0.26621178 0.12995891
000360 bc 70 cb bd b4 cf 76 3e 29 7e 8c 3e 0b 68 87 3e
       -0.09933612 0.2410267 0.27440003 0.26446566
000370 8d 72 b3 3e bd a3 0c be 77 53 6c 3d 14 c8 2b 3d
       0.35048333 -0.13734336 0.057696786 0.041938856
000380 ff e6 a7 3e f2 b7 e0 bd 0d bd cc 3e 80 65 f9 3b
       0.32793424 -0.10972585 0.39987984 0.0076109767
000390 23 5f b4 bd 9b ba 6a 3e eb 17 63 be 5e c6 c4 bd
       -0.088072084 0.22922747 -0.22177093 -0.09608148
0003a0 80 11 88 3b 50 62 ac bc ce 79 ae 3d 49 18 b9 3e
       0.004152477 -0.021042973 0.08519326 0.3615134
0003b0 dd 6b 0c 3e 45 61 b1 3e b0 6c 49 3d 8b 2a b4 3e
       0.13713022 0.34644523 0.049175918 0.35188708
0003c0 fb a6 41 3e ad 14 f1 3e a5 5f 68 be c7 98 20 bd
       0.18911354 0.47086087 -0.22692735 -0.0392082
0003d0 87 35 62 be ba 96 b0 be c6 4e d4 be f8 35 9b 3c
       -0.22090732 -0.34489995 -0.4146635 0.018946633
0003e0 7f 6e e0 3d a3 7a 40 3c 6c a2 1c 3e 9a 63 2f 3d
       0.109585755 0.011747989 0.15296334 0.042819597
0003f0 69 3d 05 be 08 3b 83 3d eb 37 de 3c 98 0f 16 be
       -0.13011707 0.06407744 0.027126273 -0.14654386

sequential/dense_1/MatMul;sequential/dense_1/MatMul f4 [1, 100]
000000 2c e9 04 c0 86 ca f4 3e ee 38 9d 3e 90 7f ce 3e
       -2.0767317 0.47810763 0.30707496 0.40331697
000010 89 40 86 c0 24 44 d4 3e b7 fd 80 3e 79 be 5f 3e
       -4.195378 0.41458237 0.2519357 0.21850003
000020 a5 57 ab 3e 67 a7 6f bf 16 e1 b7 3e 14 d8 a6 3e
       0.33465305 -0.9361481 0.35913914 0.3258673
000030 31 23 c8 3e 62 52 b5 3e 16 da af 3e 65 a2 c2 bf
       0.3908935 0.35414416 0.34346074 -1.5205809
000040 d0 11 b5 3e b0 14 5f 3e 2e 43 4b c0 17 44 3d 3e
       0.35365152 0.21785235 -3.1759753 0.18483005
000050 a3 62 17 c0 0e 08 80 3e d4 7d 01 c1 ae f9 49 bf
       -2.3653953 0.25006145 -8.09322 -0.78896606
000060 6f 67 b9 3e 8e 17 a8 3e c0 61 94 3e 5f 4f 7b 3e
       0.36211726 0.3283047 0.28980827 0.24541996
000070 f6 47 f5 bf 32 07 87 3e 44 c6 aa 3e ea 42 23 c0
       -1.9162586 0.26372677 0.3335439 -2.550959
000080 04 e9 8b bf ae dd ce 3e 40 cc 73 3e 6e 89 fa be
       -1.0930486 0.40403503 0.23808384 -0.48932976
000090 bb d5 09 3e 89 aa df 3e e5 65 8f 3e 51 6d af 3e
       0.13460438 0.43684795 0.28007427 0.3426309
0000a0 c8 09 94 3e c6 97 33 c0 14 8f 82 c0 a6 3c bc 3e
       0.28913713 -2.8061385 -4.0799656 0.3676502
0000b0 41 af b9 be c7 ef 7a 3e 32 5a cc bf d4 61 ca 3e
       -0.3626652 0.2450553 -1.5965025 0.39527762
0000c0 df cd e5 3e a5 6d 52 3e bd 26 0d c0 87 d8 45 3e
       0.4488363 0.20549639 -2.2054894 0.1932088
0000d0 9a 41 b8 bb b7 ad 60 3e 0f b3 68 3e 1c 9e 4c c0
       -0.0056230547 0.21941267 0.22724555 -3.1971502
0000e0 20 27 65 3e b9 76 89 3e 3c 86 8f 3e 64 4f e2 3e
       0.22378206 0.2684839 0.280321 0.44201195
0000f0 24 c0 7e 3e ee 26 e6 be 82 6d ff bf 10 5e 92 bf
       0.24877983 -0.44951576 -1.9955294 -1.1434956
000100 8b f8 b5 be e1 b3 94 3e d9 c3 fa bf 46 02 19 c0
       -0.35541186 0.29043487 -1.9591018 -2.3907638
000110 81 37 30 c0 3e 61 14 c0 9c 90 03 bf e2 fc 28 c0
       -2.7533877 -2.3184352 -0.5139253 -2.6404347
000120 1b 0c 03 c0 a2 dd f0 bf 20 9d ff be 9f cf 95 3e
       -2.0476139 -1.8817637 -0.49924564 0.29259965
000130 42 80 b4 3e 45 bd e1 3e 66 42 30 c0 63 ce 03 c0
       0.35254103 0.44089714 -2.7540526 -2.0594718
000140 f5 29 af 3e f7 6c 97 3e 73 7c 61 3e 38 25 cb 3e
       0.34211698 0.2957532 0.2202013 0.39676833
000150 4a a4 d6 3e 43 52 4b c0 e6 87 92 3e f9 52 db 3e
       0.41922218 -3.1768959 0.28619307 0.4283674
000160 09 7e 0a c0 a5 42 0a c0 9d 9a 14 c0 62 d7 15 c0
       -2.1639426 -2.1603177 -2.3219368 -2.341271
000170 d8 b4 80 3e 2b 29 43 40 62 72 c7 bd b0 2a cf bf
       0.25137973 3.0493877 -0.09738614 -1.6184902
000180 3e c6 87 3e ff d7 d6 bf 4a 23 c2 bd b1 fb 6e 3e
       0.26518434 -1.6784667 -0.09479387 0.233382
